model.pt (torch, 1548 bytes, 1 tensors)

weight f4 [1, 30]
00000000: 45cf e6be d6d4 f6be 6132 f8be c15b c5be
00000010: c0ff 51be 9065 61be 3284 8ebe bb37 74be
00000020: 33a1 d3bd 4240 033f 80b7 78be 398f 4bbe
00000030: 447b a4be 8212 9bbe 972f 30be 1ecf e63d
00000040: 83be bb3b 9e96 0ebe 266f ef3e edfd e63e
00000050: b9ef 63be f133 4dbe 3fe7 3bbe bb9c 6bbe
00000060: 12ae dcbe c69d babe e28e dabe 04f5 92be
00000070: bb34 debe ef1a 88be
-0.4508001 -0.48209256 -0.48475936 -0.38546565 -0.20507717 -0.220114 -0.27835232 -0.23849384
-0.10333481 0.51269925 -0.2428875 -0.19878854 -0.32125294 -0.30287558 -0.17205654 0.11269973
0.005729498 -0.13924643 0.46764487 0.45115605 -0.22259416 -0.20039345 -0.18349932 -0.23009007
-0.43101555 -0.36448497 -0.42687136 -0.28702557 -0.43399605 -0.2658305
