model.pt (torch, 1612 bytes, 1 tensors)

0.weight f4 [1, 30]
0	0xbe81c331	-0.25344232
1	0xbec1f666	-0.378833
2	0xbe4a3df4	-0.19750196
3	0xbedc94ac	-0.43082178
4	0xbe26b25d	-0.16278978
5	0xbe9a9133	-0.30188903
6	0xbecfb770	-0.4056964
7	0xbeb34868	-0.3501618
8	0xbe38e145	-0.18054684
9	0x3f0283f9	0.50982624
10	0xbf0e65d2	-0.55624115
11	0xbd9716ad	-0.07377372
12	0xbe854983	-0.26032647
13	0xbe8572e3	-0.26064214
14	0x3d8806b7	0.06641906
15	0x3e801bea	0.25021297
16	0xbe6c3c8a	-0.23069969
17	0xbe0eaf5e	-0.13934085
18	0x3e91fc96	0.2851302
19	0x3eb93eff	0.36180875
20	0xbf0a3b14	-0.53996396
21	0xbee6fdad	-0.45115414
22	0xbe756425	-0.23963983
23	0xbe5ee8d4	-0.21768504
24	0xbe964553	-0.29349765
25	0xbe11e3cf	-0.14247058
26	0xbe83c5cc	-0.25736845
27	0xbed45a19	-0.4147499
28	0xbec19742	-0.37810713
29	0xbe9a3c96	-0.30124348
